_________________________________________________________________
2018-01-06 00:33:01,974 INFO - Layer (type)                 Output Shape              Param #
2018-01-06 00:33:01,975 INFO - =================================================================
2018-01-06 00:33:01,975 INFO - input_1 (InputLayer)         (None, 28, 28, 3)         0
2018-01-06 00:33:01,975 INFO - _________________________________________________________________
2018-01-06 00:33:01,975 INFO - conv0 (Conv2D)               (None, 26, 26, 32)        896
2018-01-06 00:33:01,976 INFO - _________________________________________________________________
2018-01-06 00:33:01,976 INFO - conv1 (Conv2D)               (None, 24, 24, 64)        18496
2018-01-06 00:33:01,977 INFO - _________________________________________________________________
2018-01-06 00:33:01,977 INFO - bn0 (BatchNormalization)     (None, 24, 24, 64)        256
2018-01-06 00:33:01,977 INFO - _________________________________________________________________
2018-01-06 00:33:01,977 INFO - activation_1 (Activation)    (None, 24, 24, 64)        0
2018-01-06 00:33:01,977 INFO - _________________________________________________________________
2018-01-06 00:33:01,978 INFO - maxPool0 (MaxPooling2D)      (None, 12, 12, 64)        0
2018-01-06 00:33:01,978 INFO - _________________________________________________________________
2018-01-06 00:33:01,978 INFO - dropout_1 (Dropout)          (None, 12, 12, 64)        0
2018-01-06 00:33:01,978 INFO - _________________________________________________________________
2018-01-06 00:33:01,979 INFO - conv2 (Conv2D)               (None, 10, 10, 128)       73856
2018-01-06 00:33:01,979 INFO - _________________________________________________________________
2018-01-06 00:33:01,979 INFO - bn1 (BatchNormalization)     (None, 10, 10, 128)       512
2018-01-06 00:33:01,979 INFO - _________________________________________________________________
2018-01-06 00:33:01,979 INFO - activation_2 (Activation)    (None, 10, 10, 128)       0
2018-01-06 00:33:01,980 INFO - _________________________________________________________________
2018-01-06 00:33:01,980 INFO - maxPool1 (MaxPooling2D)      (None, 5, 5, 128)         0
2018-01-06 00:33:01,980 INFO - _________________________________________________________________
2018-01-06 00:33:01,980 INFO - dropout_2 (Dropout)          (None, 5, 5, 128)         0
2018-01-06 00:33:01,980 INFO - _________________________________________________________________
2018-01-06 00:33:01,981 INFO - conv3 (Conv2D)               (None, 3, 3, 256)         295168
2018-01-06 00:33:01,981 INFO - _________________________________________________________________
2018-01-06 00:33:01,981 INFO - bn2 (BatchNormalization)     (None, 3, 3, 256)         1024
2018-01-06 00:33:01,981 INFO - _________________________________________________________________
2018-01-06 00:33:01,982 INFO - activation_3 (Activation)    (None, 3, 3, 256)         0
2018-01-06 00:33:01,982 INFO - _________________________________________________________________
2018-01-06 00:33:01,982 INFO - maxPool2 (MaxPooling2D)      (None, 1, 1, 256)         0
2018-01-06 00:33:01,982 INFO - _________________________________________________________________
2018-01-06 00:33:01,983 INFO - dropout_3 (Dropout)          (None, 1, 1, 256)         0
2018-01-06 00:33:01,983 INFO - _________________________________________________________________
2018-01-06 00:33:01,983 INFO - flatten_1 (Flatten)          (None, 256)               0
2018-01-06 00:33:01,984 INFO - _________________________________________________________________
2018-01-06 00:33:01,984 INFO - fc0 (Dense)                  (None, 128)               32896
2018-01-06 00:33:01,984 INFO - _________________________________________________________________
2018-01-06 00:33:01,984 INFO - dropout_4 (Dropout)          (None, 128)               0
2018-01-06 00:33:01,985 INFO - _________________________________________________________________
2018-01-06 00:33:01,985 INFO - fc1 (Dense)                  (None, 64)                8256
2018-01-06 00:33:01,985 INFO - _________________________________________________________________
2018-01-06 00:33:01,986 INFO - dropout_5 (Dropout)          (None, 64)                0
2018-01-06 00:33:01,986 INFO - _________________________________________________________________
2018-01-06 00:33:01,986 INFO - fc2 (Dense)                  (None, 3)                 195
2018-01-06 00:33:01,986 INFO - =================================================================
2018-01-06 00:33:01,987 INFO - Total params: 431,555
2018-01-06 00:33:01,987 INFO - Trainable params: 430,659
2018-01-06 00:33:01,987 INFO - Non-trainable params: 896
2018-01-06 00:33:01,987 INFO - _________________________________________________________________

